…
      "execution_count": 12,
      "outputs": [
        {
          "output_type": "stream",
          "text": [
            "Model: \"model\"\n",
            "_________________________________________________________________\n",
            "Layer (type)                 Output Shape              Param #   \n",
            "=================================================================\n",
            "input_1 (InputLayer)         [(None, 80, 80, 3)]       0         \n",
            "_________________________________________________________________\n",
            "conv2d (Conv2D)              (None, 80, 80, 256)       7168      \n",
            "_________________________________________________________________\n",
            "conv2d_1 (Conv2D)            (None, 80, 80, 128)       295040    \n",
            "_________________________________________________________________\n",
            "max_pooling2d (MaxPooling2D) (None, 40, 40, 128)       0         \n",
            "_________________________________________________________________\n",
            "conv2d_2 (Conv2D)            (None, 40, 40, 64)        73792     \n",
            "_________________________________________________________________\n",
            "conv2d_3 (Conv2D)            (None, 40, 40, 64)        36928     \n",
            "_________________________________________________________________\n",
            "up_sampling2d (UpSampling2D) (None, 80, 80, 64)        0         \n",
            "_________________________________________________________________\n",
            "conv2d_4 (Conv2D)            (None, 80, 80, 128)       73856     \n",
            "_________________________________________________________________\n",
            "conv2d_5 (Conv2D)            (None, 80, 80, 256)       295168    \n",
            "_________________________________________________________________\n",
            "conv2d_6 (Conv2D)            (None, 80, 80, 3)         6915      \n",
            "=================================================================\n",
            "Total params: 788,867\n",
            "Trainable params: 788,867\n",
            "Non-trainable params: 0\n",
            "_________________________________________________________________\n"
          ],
          "name": "stdout"
        }
      ]
    },
    {
      "cell_type": "code",
      "metadata": {
…
